HURTLE/es_checkpoint.pt (torch_old, 370629 bytes, 6 tensors)

gat_layers.0.attn_l f4 [1, 8, 8]
000000 cb d0 01 bf 00 48 45 be c7 ba ae 3e 62 d4 e3 3d
       -0.5070922 -0.19265747 0.34126875 0.11124493
000010 81 67 a2 3e 35 4f 9f bd 87 d3 a7 3d a7 d8 05 3f
       0.31719592 -0.077787794 0.081946425 0.5228371
000020 45 70 bd be ec 72 dc 3e 43 28 36 3e 56 aa 55 3e
       -0.36999717 0.43056428 0.17788796 0.20865759
000030 c5 ee 6c be 05 c3 2a be 28 b8 c2 3c a9 09 f4 3c
       -0.23137958 -0.16675957 0.023769453 0.029789763
000040 39 d0 d2 bd 69 8b 04 bd bb a9 cd bd 2a d6 88 3e
       -0.102936216 -0.032359514 -0.10042139 0.26725894
000050 72 36 cf be 2c ae b1 3e 24 99 19 3e 54 11 13 3d
       -0.40471226 0.34703195 0.14999825 0.035905197
000060 be d7 7f be a2 3a 9d be be a9 f3 bd 2d 43 a4 3e
       -0.24984643 -0.30708796 -0.1189761 0.320825
000070 a9 70 74 bd 64 22 c1 be ec 63 75 3c c6 1d 7f be
       -0.059677754 -0.3772155 0.0149774365 -0.24913701
000080 d4 f1 80 3e b4 6d 2b 3e ed 88 39 3e ca 83 9d bd
       0.251845 0.16741067 0.1811864 -0.076911524
000090 54 07 1d be 72 29 84 bd 94 9e d4 bc 6b 03 c7 bd
       -0.15334827 -0.064532176 -0.025954522 -0.09717449
0000a0 bf 1e 62 bd 24 f5 59 3d 90 02 84 be a6 ff da 3d
       -0.055205103 0.0532123 -0.25783205 0.10693292
0000b0 4d 07 4d be be c0 f1 3d c8 7e de bd 9b 99 f6 3d
       -0.20022316 0.11804341 -0.10864025 0.12041017
0000c0 7a 84 60 be c9 2e 30 be 33 5f 1d 3d 6d 06 40 be
       -0.21925536 -0.17205347 0.038420867 -0.18752451
0000d0 fd b7 7f bd 91 49 a2 bd 69 dd 96 3e 96 62 28 3e
       -0.062431324 -0.07924188 0.29465798 0.16443858
0000e0 a8 0c a2 3e 7d be 75 3e 1c bc dc be ff 32 69 be
       0.3165028 0.23998447 -0.43112266 -0.2277336
0000f0 fe 9d 90 3e e4 bb 6a 3e 6a ef 96 bd d1 3f 3b 3e
       0.28245538 0.22923237 -0.07369883 0.18286063

gat_layers.0.attn_r f4 [1, 8, 8]
000000 c6 58 1d be 7a 48 b0 bc c9 9a 68 3e 2e 09 e5 3d
       -0.15365896 -0.021518935 0.22715296 0.111833915
000010 a7 b7 68 3d 8b 90 2c 3e 14 3f b1 3d 43 4d 94 3e
       0.05681577 0.16852014 0.08654609 0.28965196
000020 35 20 ee bd 73 44 ba 3d 84 01 36 3e de ee 52 3d
       -0.11627237 0.09095087 0.17774016 0.051497333
000030 ca a5 29 be 67 ef 0d bd ef ca 9d 3d 53 6d 9d bc
       -0.1656715 -0.03465214 0.07704722 -0.019217169
000040 2f f5 bd bd ee 05 07 be eb 83 a3 bc 30 0f a3 3d
       -0.09275281 -0.13185856 -0.019960364 0.07961881
000050 8f c1 7d be 31 02 80 3e 42 16 39 3e 21 17 69 3d
       -0.24780868 0.25001672 0.18074897 0.056906823
000060 bd c0 fe bd a5 52 8f be d4 aa 93 be b6 5c 51 3e
       -0.12439106 -0.2799274 -0.2884127 0.20445523
000070 bb 3b 5a 3d 1a 50 24 bd a3 69 84 3d e4 f0 82 bd
       0.05327962 -0.040115453 0.06465461 -0.063936025
000080 d5 6d 22 3e c6 44 86 3d 4f f9 20 3e 1a c6 9c 3d
       0.1586221 0.06556086 0.15720104 0.076549724
000090 03 34 a7 3d 39 da 73 bd 2e ca 9c 3b 1d b6 98 bd
       0.08164217 -0.059534285 0.004784844 -0.0745661
0000a0 68 e2 be bd 92 ba a6 3d 10 36 ee bd be 0d bc 3c
       -0.09320527 0.08141054 -0.11631405 0.022955772
0000b0 00 a1 25 be 16 f3 d0 3d f6 0e a4 bc fb e0 99 bc
       -0.16174698 0.10202615 -0.020026665 -0.018784037
0000c0 f9 de 61 bd 40 7c fb bd 16 78 2e 3d e0 50 47 3c
       -0.055144284 -0.12279558 0.04259499 0.012165278
0000d0 94 47 34 3c c0 c6 f4 bc ec 1d 43 3e 3c 1d 6b 3d
       0.011003394 -0.029879928 0.19054383 0.057400927
0000e0 1c 76 f8 3d bb f4 2e 3e 7b 5e 8c bd 34 22 f2 bd
       0.121319026 0.17085545 -0.06853958 -0.1182293
0000f0 71 d9 06 3e 0c 35 6e bb 17 c6 9d bc 25 2b 16 3e
       0.13168885 -0.0036347536 -0.019259496 0.14664896

gat_layers.0.fc.weight f4 [64, 1433]
000000 4e 69 99 bd 0d 5a fd bc 72 61 52 3d 53 2f 5d 3d
       -0.074907884 -0.030926729 0.051362462 0.05400021
000010 f1 ef 34 3d bf dd d1 3d a7 3f 75 bd 9c c9 ae 3c
       0.04417414 0.10247373 -0.059875157 0.02133637
000020 c3 7a 13 be 7b de 4c 3d 30 3e 86 bc 22 2f 40 bb
       -0.14402299 0.05001686 -0.016387075 -0.0029324968
000030 fd 8f 82 bc db 71 34 bd 26 02 02 3d ea 1e cb bd
       -0.0159378 -0.044053894 0.03174033 -0.09918006
000040 14 87 08 be 62 b6 2c be b4 d1 7c bd d7 cb 08 be
       -0.13332778 -0.16866449 -0.061723426 -0.13359009
000050 81 47 ea bb e2 22 bb bd 98 fd d0 3c db d4 6b 3d
       -0.007149637 -0.09137513 0.025511548 0.05757604
000060 50 99 fc 39 80 99 a2 3b 6e 02 fb bd 25 4c 17 bd
       0.00048179412 0.0049621463 -0.12256323 -0.03693785
000070 68 9e 10 bd fa 47 14 3e a8 9b 7c 3b 3b e5 36 bd
       -0.035307318 0.14480582 0.0038544927 -0.044652205
000080 4e 5a fd 3b 1f 43 ab bd 11 03 08 be e3 f4 b5 3d
       0.0077317124 -0.08362412 -0.1328242 0.08884599
000090 ad 86 ba bb a2 54 b6 3c 04 06 81 be 74 a0 1a bd
       -0.005692324 0.022257153 -0.25199902 -0.037750676
0000a0 d1 2d 86 3e ab 1d 49 bd 19 cd 4a bc 98 a0 cc 3d
       0.2620683 -0.04910056 -0.012378001 0.09991568
0000b0 3f c0 48 be 33 f1 ce 3c b1 81 d1 3c ad 86 07 3e
       -0.19604586 0.025261497 0.025574537 0.13234968
0000c0 c9 7a 1a 3e ba f8 80 3b 2c d8 e0 3d e5 a7 35 bf
       0.15085901 0.0039359005 0.109787315 -0.7095931
0000d0 cc ee 5a 3e 49 98 a2 3d e2 5a 7b bc a2 48 1a bd
       0.21380156 0.07939202 -0.015341492 -0.037666924
0000e0 bf dc 31 3d bd 21 55 3d 69 71 4e be 71 0a 68 bd
       0.04342341 0.05203413 -0.2016045 -0.056650583
0000f0 8f 8b 17 3d 26 47 ba bd b1 a0 8b bc 0c f5 36 bd
       0.036998328 -0.09095602 -0.017044397 -0.04466729
000100 62 fb 5d 3e 21 97 27 3d 61 fd 44 3c c5 2c 35 3e
       0.21677926 0.040915612 0.012023301 0.1769286
000110 a8 3b b8 ba 42 9f fa bd 3a 8e a4 3d be 20 43 3d
       -0.0014055865 -0.12237407 0.0803494 0.047638647
000120 4a 84 ad 3c 9c 01 7a bc 27 bf 03 3d 6c 2d c1 3d
       0.021181244 -0.015259173 0.03216472 0.09432492
000130 c4 2b 4e ba a6 a6 2c be c6 e1 d9 3d 46 35 da bb
       -0.0007864798 -0.16860446 0.10638766 -0.0066591827
000140 c9 8f 4f be 79 27 b0 3d f8 f0 02 bd f2 8c 30 3d
       -0.20269693 0.08601279 -0.031968087 0.043103166
000150 0d 26 49 3c 52 8f 5e 3e 47 fb 3b bc 3c a3 27 be
       0.012277138 0.2173436 -0.011473483 -0.16370863
000160 10 0f 19 3e 6d dd f2 3d cc 90 2c be 0c f4 6f bd
       0.14947152 0.1185864 -0.1685211 -0.05858235
000170 37 cb d1 3d 4a 0b 7c 3e 01 1a 0e 3e 72 ec 96 bd
       0.10243838 0.24613681 0.13877107 -0.07369317
000180 b4 10 2e bd 99 02 5c be 9b 8a 85 3e a8 f7 cc be
       -0.042496398 -0.21485366 0.2608231 -0.40032697
000190 aa 1b 1d bd fa e2 00 3e 5c c2 9b bd af a6 8e 3d
       -0.03835646 0.12586585 -0.076054305 0.06965386
0001a0 50 4d 27 3e 18 b2 2a 3a fd 89 81 bd 2a 4c f6 bc
       0.16338086 0.00065115234 -0.06325147 -0.030065615
0001b0 54 5d b0 bc c4 26 3c 3d 7e 52 b4 bd 4a 97 00 be
       -0.021528877 0.045935407 -0.08804797 -0.12557712
0001c0 2f 3a 42 3d b6 3d a4 bb d6 88 38 3d 18 35 28 3c
       0.04741877 -0.0050122393 0.045052372 0.010266565
0001d0 1a 27 2e 3d e6 3a f8 3c 31 e6 a4 bd ef 93 bf 3c
       0.04251776 0.030301522 -0.08051718 0.02338597
0001e0 c8 fa 4f 3d cf bb 9e 3e 14 42 9a 3c 93 0e b1 3d
       0.050776273 0.31002662 0.018830337 0.08645358
0001f0 b3 1a b1 bd a5 3b a8 bc ea 23 b2 bd 25 d3 8a bd
       -0.086476706 -0.020536253 -0.08698256 -0.06778554
000200 82 40 83 3e 80 d8 e3 bd 6d 93 2f 3e 1a c5 59 be
       0.25635153 -0.111252785 0.17146082 -0.21266595
000210 97 f8 c0 bc b0 e6 24 bc 07 78 d3 3d 58 a6 d9 bd
       -0.023556037 -0.010064766 0.10325628 -0.10627431
000220 95 1b 54 bc 85 46 a6 3d f9 04 98 3c bf d7 94 bc
       -0.012946029 0.08118919 0.018557059 -0.018169282
000230 2d 5f a7 be ce da d6 bc 18 7c ca bc 39 da 18 3e
       -0.326898 -0.026227381 -0.024717376 0.14926995
000240 89 ec 1c 3d 6a 84 c0 bd 0b 8f 42 3e 0c 25 00 3d
       0.038311515 -0.09400256 0.18999879 0.03128533
000250 bb e7 b1 bc 49 c3 3a 3d 22 6c 85 3d 0d dd 27 be
       -0.021716943 0.045596395 0.06514765 -0.16392918
000260 ef d7 03 3d 2a e4 ae 3d 1c f1 ab bc 7f 62 85 3d
       0.032188352 0.085396126 -0.020988993 0.06512927
000270 09 4d 22 3e f9 82 f9 3d d2 80 c5 3c d0 c4 12 3d
       0.15849699 0.12183184 0.024109278 0.035832226
000280 70 f2 f6 3d 69 de 33 be 92 e1 90 be 98 a9 e4 bc
       0.1205796 -0.17565311 -0.28297096 -0.0279129
000290 bd 06 f7 bb f9 6f 39 3d b4 c1 48 3d 7b a7 84 3d
       -0.007538645 0.0452728 0.049012855 0.06477257
0002a0 0a a0 14 be 49 85 5e 3e 20 ec ce 3c 81 b0 ce 3d
       -0.14514175 0.21730532 0.025259078 0.10092259
0002b0 28 3a 0b 3d 72 dd 8b bd 9d 23 f3 3c 9f 2c 95 3e
       0.03399101 -0.06829347 0.029680068 0.29135606
0002c0 10 b6 a3 3d 26 2d ec 3d 3b 8b 85 bd dd 0b 5c 3c
       0.0799371 0.11532049 -0.06520697 0.013430563
0002d0 10 75 a7 bb 4f 43 de 3c e0 a4 42 bb 2e f9 75 bc
       -0.0051103905 0.027131705 -0.0029700324 -0.015013022
0002e0 47 6b 92 bd 7c db 86 3a 9e 41 d8 bb f4 82 50 bc
       -0.07149368 0.00102888 -0.006599619 -0.012726534
0002f0 55 f4 59 3d 96 3b c5 3c 9d d4 85 3d ef 4d 6e 3d
       0.05321153 0.024076264 0.065346934 0.058179792
000300 87 f8 27 3c a0 8a 61 bc 9a 17 ff 3d 5a 03 00 bd
       0.010252125 -0.013765961 0.124556735 -0.031253196
000310 eb 36 87 bd 08 12 ac 3b 24 01 6b bd 5e b2 ca 3d
       -0.06602272 0.005251173 -0.057374135 0.09897302
000320 95 43 d5 3d 36 a4 11 3d 22 59 e0 3d 30 c8 2b 3e
       0.10413281 0.035556994 0.10954501 0.16775584
000330 79 7d a2 3d e4 fc c7 3e 85 26 9b 3d 66 12 1f bd
       0.07934088 0.39060128 0.075757064 -0.038835905
000340 24 1a 8d bd c4 80 02 bd ec 56 ca bd 1b e3 16 3e
       -0.068897516 -0.03186108 -0.0987986 0.14735071
000350 cd fe 2a bd 71 0a da bd 15 14 08 be e2 b0 63 bd
       -0.041746903 -0.10646523 -0.1328891 -0.05558861
000360 87 e9 19 3e fe f0 80 3e eb 4c e2 3d bb 53 04 3c
       0.1503049 0.25183862 0.11049827 0.0080766035
000370 49 b0 5c 3d 71 6d 2b bd 4f d5 f9 bc 2c 4a df 3b
       0.053879056 -0.04185242 -0.030497221 0.006814262
000380 47 4d 20 3e 31 4e 20 bd e5 a3 2e 3e f2 33 bd 3d
       0.15654479 -0.03913707 0.17054708 0.092384234
000390 48 0b 7c 3d 5c e9 29 3d 91 a3 96 3d af 08 5e 3e
       0.061534196 0.041482314 0.073554166 0.21683
0003a0 b9 dd 2c bc 9d c9 cb 3d fe 5d 90 3e 66 ee 00 3e
       -0.01055091 0.09950564 0.2819671 0.12590942
0003b0 f6 ce 38 3e c6 1a 5b bd 04 05 cb 3d 50 94 cd 3c
       0.180477 -0.05349233 0.09913066 0.025095135
0003c0 86 2c d7 bc 20 91 7a 3d 11 e5 8b 3c 6c f3 bb 3d
       -0.026266348 0.06117356 0.017077 0.091772884
0003d0 a0 ee 21 3c 40 65 20 3b 57 24 ce 3c 14 2e a1 3d
       0.009883553 0.0024474412 0.025163813 0.07870117
0003e0 af 6a 6d bd 8c b5 3c 3d 2b 41 2b 3d 32 ad d7 3d
       -0.05796307 0.046071574 0.041810196 0.10531081
0003f0 bc cf 9b 3d 78 27 a3 ba 6f e9 2a bd 5e f2 b9 3b
       0.076079816 -0.0012447676 -0.041726526 0.0056746444

gat_layers.1.attn_l f4 [1, 1, 7]
000000 85 ec 6f 3e 4d 15 15 3e a3 59 7b 3e 66 f2 63 3e
       0.23430069 0.14558907 0.24545912 0.22260436
000010 8e 41 70 3e 66 0c 10 3e ae d2 1d 3e
       0.23462507 0.1406723 0.15412399

gat_layers.1.attn_r f4 [1, 1, 7]
000000 59 c9 f0 bd ff c7 d5 3d 10 97 7f be ce 89 56 3f
       -0.11757154 0.10438537 -0.2495997 0.83804023
000010 6e 88 34 3e 2d 68 89 be d2 69 ff be
       0.17630169 -0.26837292 -0.49885422

gat_layers.1.fc.weight f4 [7, 64]
000000 f1 69 7c 3f 9a 3c f8 3d 3b 9e 99 3f c9 4d 88 3f
       0.98599154 0.12120934 1.2001413 1.0648738
000010 36 d9 a3 3e f7 c9 b0 bf 1d 5e a4 bf 99 6d 7e bf
       0.32001656 -1.3811635 -1.2841221 -0.9938598
000020 21 b3 38 bf 1c 9d 8f bf b8 01 0d 3f c3 30 9e 3f
       -0.7214833 -1.1219821 0.5508075 1.2358631
000030 5b a4 9b 3f d4 58 1e bf 2c af 95 bf 85 8d 83 3f
       1.2159532 -0.6185429 -1.1694083 1.0277563
000040 c4 0f 16 bf f5 9b 22 bf d8 aa 77 3f 3c 42 11 bf
       -0.58617806 -0.6351922 0.9674506 -0.5674169
000050 d4 f0 d0 3f b6 9c ae bf 24 19 75 bf f6 9c 14 3f
       1.6323495 -1.3641574 -0.95741487 0.58052003
000060 fd d7 b4 bf 71 37 72 3f 6d 5f 4e bf 82 05 9b 3f
       -1.4128414 0.94615847 -0.8061436 1.2111056
000070 06 d4 20 3f ed e4 68 bf 1d b7 88 bf 79 a8 69 3f
       0.6282352 -0.90974313 -1.0680882 0.91272694
000080 67 1e b0 bf 5b f2 9a 3f cd 2c 61 3f a9 f0 40 bf
       -1.3759278 1.2105211 0.87958986 -0.7536722
000090 b9 c5 3b 3f 65 34 64 3f c5 80 b5 bf 0e 78 9f bf
       0.73348576 0.8914245 -1.4179922 -1.2458513
0000a0 01 78 88 bf a7 15 29 bf b9 37 17 3f 26 fe 7d 3f
       -1.0661622 -0.66048664 0.590694 0.99215925
0000b0 50 4f aa 3f b2 75 83 bf 7a 11 7d 3d a0 48 aa bf
       1.3305454 -1.0270293 0.061784245 -1.3303413
0000c0 cf 40 ba 3f 30 bc 9f 3e 5a c2 83 3f a0 51 b8 bf
       1.4551028 0.31198263 1.0293686 -1.439991
0000d0 e8 6c 63 bd eb f0 4d bf b1 58 8a 3f b3 de 66 bf
       -0.055523783 -0.80445737 1.0808316 -0.9018356
0000e0 22 7a d2 3f ae fb 22 3f 08 55 ce bf 00 e4 36 3f
       1.6443522 0.6366528 -1.61197 0.7144165
0000f0 4e 03 e6 bb b7 d0 32 bf 42 d4 dc bf 5b c9 82 3e
       -0.007019437 -0.69849724 -1.7252276 0.25544247
000100 a1 94 a0 bf ad 8e a1 3f 7a 8f a0 3f 28 fe 8a 3e
       -1.2545358 1.2621666 1.2543786 0.2714703
000110 18 63 b4 3d 3e 09 8c bf ab ab a9 bf c6 ff d7 3f
       0.08807963 -1.094032 -1.3255514 1.6874931
000120 ba e3 8b bf 6d ab c7 3f a7 e8 4b 3f cc d9 b7 bf
       -1.0928872 1.559919 0.79651874 -1.4363341
000130 91 d7 72 bf ea bc 97 bf a0 f3 9e bd 07 f1 f2 3e
       -0.9486018 -1.1854527 -0.077613115 0.47449514
000140 15 d0 62 3f d6 10 aa 3f 9a ad fa 3e 17 96 f6 3e
       0.8859876 1.3286388 0.48960572 0.48161384
000150 51 ec 1c bf 71 dd 11 3f 30 1c b1 3f 9c f8 84 bf
       -0.6129809 0.5697852 1.3836727 -1.038837
000160 e8 b7 24 bf 19 4b 8c bf 12 72 74 bf f5 e0 87 3f
       -0.6434312 -1.0960418 -0.9548656 1.0615526
000170 21 f7 db bf 5f 66 dd be 87 47 52 bf 56 61 61 bd
       -1.7184793 -0.43242165 -0.8214039 -0.055024467
000180 ee 79 8d 3f bb a7 75 3e bb 67 97 3f 74 8c 91 3f
       1.1052835 0.23989765 1.1828531 1.1370988
000190 27 1f 6c bf 58 60 6c 3f 43 a9 92 3f e4 d6 06 be
       -0.92235035 0.9233451 1.1457905 -0.13167912
0001a0 63 bd d7 3d a5 c6 54 bf 93 33 8d 3f 33 b7 9a bf
       0.105341695 -0.8311561 1.1031364 -1.2087158
0001b0 9e 83 97 bf 64 5e 39 bf 93 99 ab 3f 79 a6 93 3f
       -1.1837041 -0.72409654 1.3406242 1.1535178
0001c0 84 70 76 bf 98 f3 a0 bf 5e 2d a9 bf 2d f9 6c bf
       -0.96265435 -1.2574339 -1.321697 -0.9256771
0001d0 2d 5e 8d 3f 9b bd 82 bf 31 a2 44 3f 12 82 4f 3f
       1.1044365 -1.0214113 0.76809984 0.81057847
0001e0 4b 29 9f 3f 4f 7a b6 3f 18 db 90 bf 87 7d ab bf
       1.2434477 1.4256076 -1.1316862 -1.3397683
0001f0 ee 0d b4 3f cc 57 92 3f 26 01 d3 3e bc 2d 87 3f
       1.4066751 1.1433043 0.41211814 1.0560832
000200 2b 3e 68 3f a7 4e 79 3f d1 13 8a bf 61 22 b8 bf
       0.9071986 0.9738564 -1.0787297 -1.4385492
000210 87 b8 81 bf 3b f4 a2 3f c2 15 7c 3f 22 13 fb be
       -1.0134438 1.2730783 0.984707 -0.49038035
000220 f0 81 8d bf 20 ef af 3d 12 bd 2a 3f 7d 82 81 3f
       -1.1055279 0.08590531 0.6669475 1.0117947
000230 64 f8 9b bf 7e 78 e1 3e 9c 30 22 be 23 f8 d9 bf
       -1.2185178 0.4403724 -0.15838856 -1.702885
000240 ea 90 97 bf cd be 7f 3f e2 53 04 bf d8 07 88 bf
       -1.1841099 0.99900514 -0.51690495 -1.0627394
000250 c9 45 54 bf 91 b3 82 3f 13 c8 9a 3f d9 35 a9 bf
       -0.82918984 1.0211049 1.2092308 -1.3219558
000260 3b 8a c4 3f e5 0e 8b bf 08 8d 9d bf 3e 50 82 bf
       1.5354685 -1.086392 -1.2308664 -1.0180738
000270 50 fa 45 3f 79 4c bd 3f 76 2c 96 3f 97 fc 52 3f
       0.7733507 1.4788963 1.1732318 0.8241667
000280 b0 bb 75 bf 0f c5 84 bf 71 da bd bf b4 74 7b 3f
       -0.95989513 -1.0372638 -1.4832288 0.9822495
000290 ed e5 9e 3f 1d cb b4 bf ea b0 8a bf 90 ec c7 3f
       1.2413918 -1.4124485 -1.083524 1.5619068
0002a0 ce d9 5d 3f d1 44 10 be 1d 38 a8 bf 8a 76 8a bf
       0.8666047 -0.14088751 -1.3142124 -1.0817425
0002b0 f4 c5 04 3f e4 04 be 3f 80 63 85 bf b4 84 ad bf
       0.5186455 1.4845243 -1.042099 -1.3556123
0002c0 70 3a 0d bf 0c 91 70 3f cd 9d 85 bf 0d eb af 3f
       -0.55167294 0.93971324 -1.0438782 1.3743607
0002d0 12 9d fc 3e a8 3d 50 bf d0 ec d1 bf 47 66 c4 bf
       0.49338585 -0.8134408 -1.6400394 -1.5343713
0002e0 14 28 52 bf b4 de 19 bf 82 34 8c 3f 19 49 d2 bf
       -0.82092404 -0.60105443 1.0953524 -1.6428558
0002f0 00 d5 5a bf f7 24 ae bf 60 3a 56 3f 32 66 7e 3f
       -0.8548126 -1.3605031 0.83682823 0.9937469
000300 9a 51 bd bf 21 f9 b4 bf b0 e9 04 bf 38 f5 b6 3f
       -1.4790528 -1.4138528 -0.5191908 1.4293585
000310 2b bf 70 bf 03 03 a3 3f e3 2c 25 3f c5 eb 52 bf
       -0.940417 1.2735294 0.64521617 -0.82391006
000320 ca 5e c5 3f 5e d0 97 bf dd 36 91 bf 19 1c ea be
       1.5419552 -1.1860464 -1.1344868 -0.45724562
000330 9f fd 8a 3f 31 4f 7a bf 99 8f aa 3f 6e e8 a9 bf
       1.0858649 -0.97777086 1.3325073 -1.3274057
000340 2e 12 91 3f 3d 80 99 bf 4e b9 ca be 40 23 b1 3f
       1.1333673 -1.199226 -0.395945 1.3838882
000350 f0 bd 5e bf 77 28 7d 3f 28 64 b3 bf 3a 66 58 3f
       -0.8700857 0.9888987 -1.401494 0.84530985
000360 50 67 b9 3f db 0a 63 3f 3e 96 dd 3f 77 67 9e bf
       1.4484653 0.8868844 1.7311475 -1.2375325
000370 f6 3f 18 bd 12 8e 99 bf d2 23 8f bf fe 14 7c 3f
       -0.037170373 -1.1996481 -1.1182806 0.9846953
000380 44 bb 90 bf 00 ed 6c bf a9 34 b9 bf 58 3a 91 be
       -1.1307149 -0.92549133 -1.4469196 -0.28364825
000390 28 df e4 bf f4 8a ab 3f 0e e4 0b 3f 87 03 9a 3f
       -1.7880602 1.340178 0.5464486 1.2032326
0003a0 03 a8 51 3d f5 c1 8b bf 0b 46 9c bf d7 36 45 bf
       0.05118562 -1.0918566 -1.2208875 -0.77036804
0003b0 6a 31 44 bf c0 8f 84 3f 7b 5f c1 bf 4f 6d cf 3f
       -0.766379 1.0356369 -1.5107263 1.6205233
0003c0 2d c2 09 bf 48 88 35 3f 57 ef 6c bf 0e 6b 9d 3f
       -0.53811914 0.70911074 -0.92552704 1.2298295
0003d0 7f 39 90 bf 6f 0a 90 bf b5 df af 3f 8a 04 ad 3e
       -1.1267546 -1.1253184 1.3740145 0.33792526
0003e0 1b ba 78 bf 28 6a 28 bf 74 06 79 3f be c8 96 3f
       -0.97158974 -0.6578698 0.9727547 1.1780012
0003f0 85 38 ac bf 8d 15 55 bf b7 03 23 3f 27 02 bc bf
       -1.3454748 -0.8323601 0.63677543 -1.4688157
